…
I1123 05:09:03.589406 16815 net.cpp:257] The NetState phase (0) differed from the phase (1) specified by a rule in layer cifar
I1123 05:09:03.589439 16815 net.cpp:257] The NetState phase (0) differed from the phase (1) specified by a rule in layer accuracy
I1123 05:09:03.589599 16815 net.cpp:42] Initializing net from parameters: 
name: "Part 3"
state {
  phase: TRAIN
}
layer {
  name: "cifar"
  type: "Data"
  top: "data"
  top: "label"
  include {
    phase: TRAIN
  }
  data_param {
    source: "data/cifar10_train_lmdb"
    batch_size: 250
    backend: LMDB
  }
}
layer {
  name: "conv1"
  type: "Convolution"
  bottom: "data"
  top: "conv1"
  param {
    lr_mult: 1
  }
  param {
    lr_mult: 2
  }
  convolution_param {
    num_output: 32
    pad: 2
    kernel_size: 5
    stride: 1
    weight_filler {
      type: "gaussian"
      std: 0.0001
    }
    bias_filler {
      type: "constant"
    }
  }
}
layer {
  name: "pool1"
  type: "Pooling"
  bottom: "conv1"
  top: "pool1"
  pooling_param {
    pool: MAX
    kernel_size: 3
    stride: 2
  }
}
layer {
  name: "relu1"
  type: "ReLU"
  bottom: "pool1"
  top: "pool1"
}
layer {
  name: "conv2"
  type: "Convolution"
  bottom: "pool1"
  top: "conv2"
  param {
    lr_mult: 1
  }
  param {
    lr_mult: 2
  }
  convolution_param {
    num_output: 32
    pad: 2
    kernel_size: 5
    stride: 1
    weight_filler {
      type: "gaussian"
      std: 0.01
    }
    bias_filler {
      type: "constant"
    }
  }
}
layer {
  name: "relu2"
  type: "ReLU"
  bottom: "conv2"
  top: "conv2"
}
layer {
  name: "pool2"
  type: "Pooling"
  bottom: "conv2"
  top: "pool2"
  pooling_param {
    pool: AVE
    kernel_size: 5
    stride: 2
  }
}
layer {
  name: "conv3"
  type: "Convolution"
  bottom: "pool2"
  top: "conv3"
  param {
    lr_mult: 1
  }
  param {
    lr_mult: 2
  }
  convolution_param {
    num_output: 64
    pad: 2
    kernel_size: 5
    stride: 1
    weight_filler {
      type: "gaussian"
      std: 0.01
    }
    bias_filler {
      type: "constant"
    }
  }
}
layer {
  name: "relu3"
  type: "ReLU"
  bottom: "conv3"
  top: "conv3"
}
layer {
  name: "pool3"
  type: "Pooling"
  bottom: "conv3"
  top: "pool3"
  pooling_param {
    pool: AVE
    kernel_size: 3
    stride: 2
  }
}
layer {
  name: "ip1"
  type: "InnerProduct"
  bottom: "pool3"
  top: "ip1"
  param {
    lr_mult: 1
  }
  param {
    lr_mult: 2
  }
  inner_product_param {
    num_output: 64
    weight_filler {
      type: "gaussian"
      std: 0.1
    }
    bias_filler {
      type: "constant"
    }
  }
}
layer {
  name: "ip2_10"
  type: "InnerProduct"
  bottom: "ip1"
  top: "ip2_10"
  param {
    lr_mult: 100
  }
  param {
    lr_mult: 100
  }
  inner_product_param {
    num_output: 10
    weight_filler {
      type: "gaussian"
      std: 0.1
    }
    bias_filler {
      type: "constant"
    }
  }
}
layer {
  name: "loss"
  type: "SoftmaxWithLoss"
  bottom: "ip2_10"
  bottom: "label"
  top: "loss"
}
I1123 05:09:03.589754 16815 layer_factory.hpp:74] Creating layer cifar
I1123 05:09:03.589804 16815 net.cpp:84] Creating Layer cifar
I1123 05:09:03.589833 16815 net.cpp:338] cifar -> data
I1123 05:09:03.589890 16815 net.cpp:338] cifar -> label
I1123 05:09:03.589915 16815 net.cpp:113] Setting up cifar
I1123 05:09:03.589989 16815 db.cpp:34] Opened lmdb data/cifar10_train_lmdb
I1123 05:09:03.590060 16815 data_layer.cpp:67] output data size: 250,3,32,32
I1123 05:09:03.591027 16815 net.cpp:120] Top shape: 250 3 32 32 (768000)
I1123 05:09:03.591042 16815 net.cpp:120] Top shape: 250 (250)
I1123 05:09:03.591049 16815 layer_factory.hpp:74] Creating layer conv1
I1123 05:09:03.591066 16815 net.cpp:84] Creating Layer conv1
I1123 05:09:03.591094 16815 net.cpp:380] conv1 <- data
I1123 05:09:03.591116 16815 net.cpp:338] conv1 -> conv1
I1123 05:09:03.591143 16815 net.cpp:113] Setting up conv1
I1123 05:09:03.750279 16815 net.cpp:120] Top shape: 250 32 32 32 (8192000)
I1123 05:09:03.750339 16815 layer_factory.hpp:74] Creating layer pool1
I1123 05:09:03.750372 16815 net.cpp:84] Creating Layer pool1
I1123 05:09:03.750394 16815 net.cpp:380] pool1 <- conv1
I1123 05:09:03.750411 16815 net.cpp:338] pool1 -> pool1
I1123 05:09:03.750422 16815 net.cpp:113] Setting up pool1
I1123 05:09:03.750599 16815 net.cpp:120] Top shape: 250 32 16 16 (2048000)
I1123 05:09:03.750617 16815 layer_factory.hpp:74] Creating layer relu1
I1123 05:09:03.750625 16815 net.cpp:84] Creating Layer relu1
I1123 05:09:03.750638 16815 net.cpp:380] relu1 <- pool1
I1123 05:09:03.750645 16815 net.cpp:327] relu1 -> pool1 (in-place)
I1123 05:09:03.750653 16815 net.cpp:113] Setting up relu1
I1123 05:09:03.750705 16815 net.cpp:120] Top shape: 250 32 16 16 (2048000)
I1123 05:09:03.750717 16815 layer_factory.hpp:74] Creating layer conv2
I1123 05:09:03.750731 16815 net.cpp:84] Creating Layer conv2
I1123 05:09:03.750741 16815 net.cpp:380] conv2 <- pool1
I1123 05:09:03.750751 16815 net.cpp:338] conv2 -> conv2
I1123 05:09:03.750761 16815 net.cpp:113] Setting up conv2
I1123 05:09:03.751823 16815 net.cpp:120] Top shape: 250 32 16 16 (2048000)
I1123 05:09:03.751845 16815 layer_factory.hpp:74] Creating layer relu2
I1123 05:09:03.751860 16815 net.cpp:84] Creating Layer relu2
I1123 05:09:03.751866 16815 net.cpp:380] relu2 <- conv2
I1123 05:09:03.751873 16815 net.cpp:327] relu2 -> conv2 (in-place)
I1123 05:09:03.751880 16815 net.cpp:113] Setting up relu2
I1123 05:09:03.751926 16815 net.cpp:120] Top shape: 250 32 16 16 (2048000)
I1123 05:09:03.751938 16815 layer_factory.hpp:74] Creating layer pool2
I1123 05:09:03.751946 16815 net.cpp:84] Creating Layer pool2
I1123 05:09:03.751951 16815 net.cpp:380] pool2 <- conv2
I1123 05:09:03.751957 16815 net.cpp:338] pool2 -> pool2
I1123 05:09:03.751971 16815 net.cpp:113] Setting up pool2
I1123 05:09:03.752099 16815 net.cpp:120] Top shape: 250 32 7 7 (392000)
I1123 05:09:03.752118 16815 layer_factory.hpp:74] Creating layer conv3
I1123 05:09:03.752128 16815 net.cpp:84] Creating Layer conv3
I1123 05:09:03.752141 16815 net.cpp:380] conv3 <- pool2
I1123 05:09:03.752156 16815 net.cpp:338] conv3 -> conv3
I1123 05:09:03.752171 16815 net.cpp:113] Setting up conv3
I1123 05:09:03.754067 16815 net.cpp:120] Top shape: 250 64 7 7 (784000)
I1123 05:09:03.754091 16815 layer_factory.hpp:74] Creating layer relu3
I1123 05:09:03.754101 16815 net.cpp:84] Creating Layer relu3
I1123 05:09:03.754112 16815 net.cpp:380] relu3 <- conv3
I1123 05:09:03.754125 16815 net.cpp:327] relu3 -> conv3 (in-place)
I1123 05:09:03.754139 16815 net.cpp:113] Setting up relu3
I1123 05:09:03.754207 16815 net.cpp:120] Top shape: 250 64 7 7 (784000)
I1123 05:09:03.754227 16815 layer_factory.hpp:74] Creating layer pool3
I1123 05:09:03.754242 16815 net.cpp:84] Creating Layer pool3
I1123 05:09:03.754262 16815 net.cpp:380] pool3 <- conv3
I1123 05:09:03.754276 16815 net.cpp:338] pool3 -> pool3
I1123 05:09:03.754292 16815 net.cpp:113] Setting up pool3
I1123 05:09:03.754343 16815 net.cpp:120] Top shape: 250 64 3 3 (144000)
I1123 05:09:03.754356 16815 layer_factory.hpp:74] Creating layer ip1
I1123 05:09:03.754369 16815 net.cpp:84] Creating Layer ip1
I1123 05:09:03.754375 16815 net.cpp:380] ip1 <- pool3
I1123 05:09:03.754384 16815 net.cpp:338] ip1 -> ip1
I1123 05:09:03.754397 16815 net.cpp:113] Setting up ip1
I1123 05:09:03.755583 16815 net.cpp:120] Top shape: 250 64 (16000)
I1123 05:09:03.755599 16815 layer_factory.hpp:74] Creating layer ip2_10
I1123 05:09:03.755609 16815 net.cpp:84] Creating Layer ip2_10
I1123 05:09:03.755621 16815 net.cpp:380] ip2_10 <- ip1
I1123 05:09:03.755636 16815 net.cpp:338] ip2_10 -> ip2_10
I1123 05:09:03.755652 16815 net.cpp:113] Setting up ip2_10
I1123 05:09:03.755705 16815 net.cpp:120] Top shape: 250 10 (2500)
I1123 05:09:03.755723 16815 layer_factory.hpp:74] Creating layer loss
I1123 05:09:03.755762 16815 net.cpp:84] Creating Layer loss
I1123 05:09:03.755772 16815 net.cpp:380] loss <- ip2_10
I1123 05:09:03.755782 16815 net.cpp:380] loss <- label
I1123 05:09:03.755805 16815 net.cpp:338] loss -> loss
I1123 05:09:03.755822 16815 net.cpp:113] Setting up loss
I1123 05:09:03.755837 16815 layer_factory.hpp:74] Creating layer loss
…
I1123 05:09:03.756052 16815 net.cpp:218] Memory required for data: 77099004
I1123 05:09:03.756548 16815 solver.cpp:154] Creating test net (#0) specified by net file: HaxHW3/train_val7.prototxt
I1123 05:09:03.756589 16815 net.cpp:257] The NetState phase (1) differed from the phase (0) specified by a rule in layer cifar
I1123 05:09:03.756732 16815 net.cpp:42] Initializing net from parameters: 
name: "Part 3"
state {
  phase: TEST
}
layer {
  name: "cifar"
  type: "Data"
  top: "data"
  top: "label"
  include {
    phase: TEST
  }
  data_param {
    source: "data/cifar10_test_lmdb"
    batch_size: 250
    backend: LMDB
  }
}
layer {
  name: "conv1"
  type: "Convolution"
  bottom: "data"
  top: "conv1"
  param {
    lr_mult: 1
  }
  param {
    lr_mult: 2
  }
  convolution_param {
    num_output: 32
    pad: 2
    kernel_size: 5
    stride: 1
    weight_filler {
      type: "gaussian"
      std: 0.0001
    }
    bias_filler {
      type: "constant"
    }
  }
}
layer {
  name: "pool1"
  type: "Pooling"
  bottom: "conv1"
  top: "pool1"
  pooling_param {
    pool: MAX
    kernel_size: 3
    stride: 2
  }
}
layer {
  name: "relu1"
  type: "ReLU"
  bottom: "pool1"
  top: "pool1"
}
layer {
  name: "conv2"
  type: "Convolution"
  bottom: "pool1"
  top: "conv2"
  param {
    lr_mult: 1
  }
  param {
    lr_mult: 2
  }
  convolution_param {
    num_output: 32
    pad: 2
    kernel_size: 5
    stride: 1
    weight_filler {
      type: "gaussian"
      std: 0.01
    }
    bias_filler {
      type: "constant"
    }
  }
}
layer {
  name: "relu2"
  type: "ReLU"
  bottom: "conv2"
  top: "conv2"
}
layer {
  name: "pool2"
  type: "Pooling"
  bottom: "conv2"
  top: "pool2"
  pooling_param {
    pool: AVE
    kernel_size: 5
    stride: 2
  }
}
layer {
  name: "conv3"
  type: "Convolution"
  bottom: "pool2"
  top: "conv3"
  param {
    lr_mult: 1
  }
  param {
    lr_mult: 2
  }
  convolution_param {
    num_output: 64
    pad: 2
    kernel_size: 5
    stride: 1
    weight_filler {
      type: "gaussian"
      std: 0.01
    }
    bias_filler {
      type: "constant"
    }
  }
}
layer {
  name: "relu3"
  type: "ReLU"
  bottom: "conv3"
  top: "conv3"
}
layer {
  name: "pool3"
  type: "Pooling"
  bottom: "conv3"
  top: "pool3"
  pooling_param {
    pool: AVE
    kernel_size: 3
    stride: 2
  }
}
layer {
  name: "ip1"
  type: "InnerProduct"
  bottom: "pool3"
  top: "ip1"
  param {
    lr_mult: 1
  }
  param {
    lr_mult: 2
  }
  inner_product_param {
    num_output: 64
    weight_filler {
      type: "gaussian"
      std: 0.1
    }
    bias_filler {
      type: "constant"
    }
  }
}
layer {
  name: "ip2_10"
  type: "InnerProduct"
  bottom: "ip1"
  top: "ip2_10"
  param {
    lr_mult: 100
  }
  param {
    lr_mult: 100
  }
  inner_product_param {
    num_output: 10
    weight_filler {
      type: "gaussian"
      std: 0.1
    }
    bias_filler {
      type: "constant"
    }
  }
}
layer {
  name: "accuracy"
  type: "Accuracy"
  bottom: "ip2_10"
  bottom: "label"
  top: "accuracy"
  include {
    phase: TEST
  }
}
layer {
  name: "loss"
  type: "SoftmaxWithLoss"
  bottom: "ip2_10"
  bottom: "label"
  top: "loss"
}
I1123 05:09:03.756845 16815 layer_factory.hpp:74] Creating layer cifar
I1123 05:09:03.756865 16815 net.cpp:84] Creating Layer cifar
I1123 05:09:03.756871 16815 net.cpp:338] cifar -> data
I1123 05:09:03.756883 16815 net.cpp:338] cifar -> label
I1123 05:09:03.756891 16815 net.cpp:113] Setting up cifar
I1123 05:09:03.756942 16815 db.cpp:34] Opened lmdb data/cifar10_test_lmdb
I1123 05:09:03.756984 16815 data_layer.cpp:67] output data size: 250,3,32,32
I1123 05:09:03.758222 16815 net.cpp:120] Top shape: 250 3 32 32 (768000)
I1123 05:09:03.758239 16815 net.cpp:120] Top shape: 250 (250)
I1123 05:09:03.758244 16815 layer_factory.hpp:74] Creating layer label_cifar_1_split
I1123 05:09:03.758254 16815 net.cpp:84] Creating Layer label_cifar_1_split
I1123 05:09:03.758293 16815 net.cpp:380] label_cifar_1_split <- label
I1123 05:09:03.758301 16815 net.cpp:338] label_cifar_1_split -> label_cifar_1_split_0
I1123 05:09:03.758311 16815 net.cpp:338] label_cifar_1_split -> label_cifar_1_split_1
I1123 05:09:03.758317 16815 net.cpp:113] Setting up label_cifar_1_split
I1123 05:09:03.758343 16815 net.cpp:120] Top shape: 250 (250)
I1123 05:09:03.758354 16815 net.cpp:120] Top shape: 250 (250)
I1123 05:09:03.758364 16815 layer_factory.hpp:74] Creating layer conv1
I1123 05:09:03.758381 16815 net.cpp:84] Creating Layer conv1
I1123 05:09:03.758391 16815 net.cpp:380] conv1 <- data
I1123 05:09:03.758405 16815 net.cpp:338] conv1 -> conv1
I1123 05:09:03.758422 16815 net.cpp:113] Setting up conv1
I1123 05:09:03.758771 16815 net.cpp:120] Top shape: 250 32 32 32 (8192000)
I1123 05:09:03.758803 16815 layer_factory.hpp:74] Creating layer pool1
I1123 05:09:03.758831 16815 net.cpp:84] Creating Layer pool1
I1123 05:09:03.758862 16815 net.cpp:380] pool1 <- conv1
I1123 05:09:03.758877 16815 net.cpp:338] pool1 -> pool1
I1123 05:09:03.758891 16815 net.cpp:113] Setting up pool1
I1123 05:09:03.759049 16815 net.cpp:120] Top shape: 250 32 16 16 (2048000)
I1123 05:09:03.759068 16815 layer_factory.hpp:74] Creating layer relu1
I1123 05:09:03.759084 16815 net.cpp:84] Creating Layer relu1
I1123 05:09:03.759094 16815 net.cpp:380] relu1 <- pool1
I1123 05:09:03.759106 16815 net.cpp:327] relu1 -> pool1 (in-place)
I1123 05:09:03.759119 16815 net.cpp:113] Setting up relu1
I1123 05:09:03.759191 16815 net.cpp:120] Top shape: 250 32 16 16 (2048000)
I1123 05:09:03.759207 16815 layer_factory.hpp:74] Creating layer conv2
I1123 05:09:03.759223 16815 net.cpp:84] Creating Layer conv2
I1123 05:09:03.759233 16815 net.cpp:380] conv2 <- pool1
I1123 05:09:03.759248 16815 net.cpp:338] conv2 -> conv2
I1123 05:09:03.759264 16815 net.cpp:113] Setting up conv2
I1123 05:09:03.760336 16815 net.cpp:120] Top shape: 250 32 16 16 (2048000)
I1123 05:09:03.760365 16815 layer_factory.hpp:74] Creating layer relu2
I1123 05:09:03.760380 16815 net.cpp:84] Creating Layer relu2
I1123 05:09:03.760390 16815 net.cpp:380] relu2 <- conv2
I1123 05:09:03.760402 16815 net.cpp:327] relu2 -> conv2 (in-place)
I1123 05:09:03.760416 16815 net.cpp:113] Setting up relu2
I1123 05:09:03.760490 16815 net.cpp:120] Top shape: 250 32 16 16 (2048000)
I1123 05:09:03.760540 16815 layer_factory.hpp:74] Creating layer pool2
I1123 05:09:03.760565 16815 net.cpp:84] Creating Layer pool2
I1123 05:09:03.760576 16815 net.cpp:380] pool2 <- conv2
I1123 05:09:03.760640 16815 net.cpp:338] pool2 -> pool2
I1123 05:09:03.760679 16815 net.cpp:113] Setting up pool2
I1123 05:09:03.760758 16815 net.cpp:120] Top shape: 250 32 7 7 (392000)
I1123 05:09:03.760782 16815 layer_factory.hpp:74] Creating layer conv3
I1123 05:09:03.760800 16815 net.cpp:84] Creating Layer conv3
I1123 05:09:03.760810 16815 net.cpp:380] conv3 <- pool2
I1123 05:09:03.760826 16815 net.cpp:338] conv3 -> conv3
I1123 05:09:03.760844 16815 net.cpp:113] Setting up conv3
I1123 05:09:03.762720 16815 net.cpp:120] Top shape: 250 64 7 7 (784000)
I1123 05:09:03.762749 16815 layer_factory.hpp:74] Creating layer relu3
I1123 05:09:03.762764 16815 net.cpp:84] Creating Layer relu3
I1123 05:09:03.762774 16815 net.cpp:380] relu3 <- conv3
I1123 05:09:03.762787 16815 net.cpp:327] relu3 -> conv3 (in-place)
I1123 05:09:03.762801 16815 net.cpp:113] Setting up relu3
I1123 05:09:03.762955 16815 net.cpp:120] Top shape: 250 64 7 7 (784000)
I1123 05:09:03.762974 16815 layer_factory.hpp:74] Creating layer pool3
I1123 05:09:03.762989 16815 net.cpp:84] Creating Layer pool3
I1123 05:09:03.763001 16815 net.cpp:380] pool3 <- conv3
I1123 05:09:03.763015 16815 net.cpp:338] pool3 -> pool3
I1123 05:09:03.763031 16815 net.cpp:113] Setting up pool3
I1123 05:09:03.763108 16815 net.cpp:120] Top shape: 250 64 3 3 (144000)
I1123 05:09:03.763126 16815 layer_factory.hpp:74] Creating layer ip1
I1123 05:09:03.763140 16815 net.cpp:84] Creating Layer ip1
I1123 05:09:03.763150 16815 net.cpp:380] ip1 <- pool3
I1123 05:09:03.763164 16815 net.cpp:338] ip1 -> ip1
I1123 05:09:03.763181 16815 net.cpp:113] Setting up ip1
I1123 05:09:03.764382 16815 net.cpp:120] Top shape: 250 64 (16000)
I1123 05:09:03.764405 16815 layer_factory.hpp:74] Creating layer ip2_10
I1123 05:09:03.764420 16815 net.cpp:84] Creating Layer ip2_10
I1123 05:09:03.764430 16815 net.cpp:380] ip2_10 <- ip1
I1123 05:09:03.764446 16815 net.cpp:338] ip2_10 -> ip2_10
I1123 05:09:03.764461 16815 net.cpp:113] Setting up ip2_10
I1123 05:09:03.764534 16815 net.cpp:120] Top shape: 250 10 (2500)
I1123 05:09:03.764559 16815 layer_factory.hpp:74] Creating layer ip2_10_ip2_10_0_split
I1123 05:09:03.764574 16815 net.cpp:84] Creating Layer ip2_10_ip2_10_0_split
I1123 05:09:03.764583 16815 net.cpp:380] ip2_10_ip2_10_0_split <- ip2_10
I1123 05:09:03.764596 16815 net.cpp:338] ip2_10_ip2_10_0_split -> ip2_10_ip2_10_0_split_0
I1123 05:09:03.764611 16815 net.cpp:338] ip2_10_ip2_10_0_split -> ip2_10_ip2_10_0_split_1
I1123 05:09:03.764626 16815 net.cpp:113] Setting up ip2_10_ip2_10_0_split
I1123 05:09:03.764641 16815 net.cpp:120] Top shape: 250 10 (2500)
I1123 05:09:03.764652 16815 net.cpp:120] Top shape: 250 10 (2500)
I1123 05:09:03.764662 16815 layer_factory.hpp:74] Creating layer accuracy
I1123 05:09:03.764678 16815 net.cpp:84] Creating Layer accuracy
I1123 05:09:03.764688 16815 net.cpp:380] accuracy <- ip2_10_ip2_10_0_split_0
I1123 05:09:03.764699 16815 net.cpp:380] accuracy <- label_cifar_1_split_0
I1123 05:09:03.764713 16815 net.cpp:338] accuracy -> accuracy
I1123 05:09:03.764726 16815 net.cpp:113] Setting up accuracy
…
