…
I1123 05:07:50.423712 15050 net.cpp:257] The NetState phase (0) differed from the phase (1) specified by a rule in layer cifar
I1123 05:07:50.423748 15050 net.cpp:257] The NetState phase (0) differed from the phase (1) specified by a rule in layer accuracy
I1123 05:07:50.423887 15050 net.cpp:42] Initializing net from parameters: 
name: "Part 3"
state {
  phase: TRAIN
}
layer {
  name: "cifar"
  type: "Data"
  top: "data"
  top: "label"
  include {
    phase: TRAIN
  }
  data_param {
    source: "data/cifar10_train_lmdb"
    batch_size: 250
    backend: LMDB
  }
}
layer {
  name: "conv1"
  type: "Convolution"
  bottom: "data"
  top: "conv1"
  param {
    lr_mult: 1
  }
  param {
    lr_mult: 2
  }
  convolution_param {
    num_output: 32
    pad: 2
    kernel_size: 5
    stride: 1
    weight_filler {
      type: "gaussian"
      std: 0.0001
    }
    bias_filler {
      type: "constant"
    }
  }
}
layer {
  name: "pool1"
  type: "Pooling"
  bottom: "conv1"
  top: "pool1"
  pooling_param {
    pool: MAX
    kernel_size: 3
    stride: 2
  }
}
layer {
  name: "relu1"
  type: "ReLU"
  bottom: "pool1"
  top: "pool1"
}
layer {
  name: "conv2"
  type: "Convolution"
  bottom: "pool1"
  top: "conv2"
  param {
    lr_mult: 1
  }
  param {
    lr_mult: 2
  }
  convolution_param {
    num_output: 32
    pad: 2
    kernel_size: 5
    stride: 1
    weight_filler {
      type: "gaussian"
      std: 0.01
    }
    bias_filler {
      type: "constant"
    }
  }
}
layer {
  name: "relu2"
  type: "ReLU"
  bottom: "conv2"
  top: "conv2"
}
layer {
  name: "pool2"
  type: "Pooling"
  bottom: "conv2"
  top: "pool2"
  pooling_param {
    pool: AVE
    kernel_size: 5
    stride: 2
  }
}
layer {
  name: "conv3"
  type: "Convolution"
  bottom: "pool2"
  top: "conv3"
  param {
    lr_mult: 1
  }
  param {
    lr_mult: 2
  }
  convolution_param {
    num_output: 64
    pad: 2
    kernel_size: 5
    stride: 1
    weight_filler {
      type: "gaussian"
      std: 0.01
    }
    bias_filler {
      type: "constant"
    }
  }
}
layer {
  name: "relu3"
  type: "ReLU"
  bottom: "conv3"
  top: "conv3"
}
layer {
  name: "pool3"
  type: "Pooling"
  bottom: "conv3"
  top: "pool3"
  pooling_param {
    pool: AVE
    kernel_size: 3
    stride: 2
  }
}
layer {
  name: "ip1"
  type: "InnerProduct"
  bottom: "pool3"
  top: "ip1"
  param {
    lr_mult: 1
  }
  param {
    lr_mult: 2
  }
  inner_product_param {
    num_output: 64
    weight_filler {
      type: "gaussian"
      std: 0.1
    }
    bias_filler {
      type: "constant"
    }
  }
}
layer {
  name: "ip2_10"
  type: "InnerProduct"
  bottom: "ip1"
  top: "ip2_10"
  param {
    lr_mult: 100
  }
  param {
    lr_mult: 100
  }
  inner_product_param {
    num_output: 10
    weight_filler {
      type: "gaussian"
      std: 0.1
    }
    bias_filler {
      type: "constant"
    }
  }
}
layer {
  name: "loss"
  type: "SoftmaxWithLoss"
  bottom: "ip2_10"
  bottom: "label"
  top: "loss"
}
I1123 05:07:50.424005 15050 layer_factory.hpp:74] Creating layer cifar
I1123 05:07:50.424034 15050 net.cpp:84] Creating Layer cifar
I1123 05:07:50.424046 15050 net.cpp:338] cifar -> data
I1123 05:07:50.424078 15050 net.cpp:338] cifar -> label
I1123 05:07:50.424093 15050 net.cpp:113] Setting up cifar
I1123 05:07:50.424178 15050 db.cpp:34] Opened lmdb data/cifar10_train_lmdb
I1123 05:07:50.424239 15050 data_layer.cpp:67] output data size: 250,3,32,32
I1123 05:07:50.425519 15050 net.cpp:120] Top shape: 250 3 32 32 (768000)
I1123 05:07:50.425537 15050 net.cpp:120] Top shape: 250 (250)
I1123 05:07:50.425545 15050 layer_factory.hpp:74] Creating layer conv1
I1123 05:07:50.425562 15050 net.cpp:84] Creating Layer conv1
I1123 05:07:50.425595 15050 net.cpp:380] conv1 <- data
I1123 05:07:50.425611 15050 net.cpp:338] conv1 -> conv1
I1123 05:07:50.425624 15050 net.cpp:113] Setting up conv1
I1123 05:07:50.479359 15050 net.cpp:120] Top shape: 250 32 32 32 (8192000)
I1123 05:07:50.479414 15050 layer_factory.hpp:74] Creating layer pool1
I1123 05:07:50.479439 15050 net.cpp:84] Creating Layer pool1
I1123 05:07:50.479446 15050 net.cpp:380] pool1 <- conv1
I1123 05:07:50.479457 15050 net.cpp:338] pool1 -> pool1
I1123 05:07:50.479470 15050 net.cpp:113] Setting up pool1
I1123 05:07:50.479651 15050 net.cpp:120] Top shape: 250 32 16 16 (2048000)
I1123 05:07:50.479670 15050 layer_factory.hpp:74] Creating layer relu1
I1123 05:07:50.479678 15050 net.cpp:84] Creating Layer relu1
I1123 05:07:50.479683 15050 net.cpp:380] relu1 <- pool1
I1123 05:07:50.479691 15050 net.cpp:327] relu1 -> pool1 (in-place)
I1123 05:07:50.479696 15050 net.cpp:113] Setting up relu1
I1123 05:07:50.479751 15050 net.cpp:120] Top shape: 250 32 16 16 (2048000)
I1123 05:07:50.479765 15050 layer_factory.hpp:74] Creating layer conv2
I1123 05:07:50.479779 15050 net.cpp:84] Creating Layer conv2
I1123 05:07:50.479784 15050 net.cpp:380] conv2 <- pool1
I1123 05:07:50.479790 15050 net.cpp:338] conv2 -> conv2
I1123 05:07:50.479804 15050 net.cpp:113] Setting up conv2
I1123 05:07:50.480896 15050 net.cpp:120] Top shape: 250 32 16 16 (2048000)
I1123 05:07:50.480921 15050 layer_factory.hpp:74] Creating layer relu2
I1123 05:07:50.480928 15050 net.cpp:84] Creating Layer relu2
I1123 05:07:50.480934 15050 net.cpp:380] relu2 <- conv2
I1123 05:07:50.480942 15050 net.cpp:327] relu2 -> conv2 (in-place)
I1123 05:07:50.480948 15050 net.cpp:113] Setting up relu2
I1123 05:07:50.480995 15050 net.cpp:120] Top shape: 250 32 16 16 (2048000)
I1123 05:07:50.481009 15050 layer_factory.hpp:74] Creating layer pool2
I1123 05:07:50.481019 15050 net.cpp:84] Creating Layer pool2
I1123 05:07:50.481024 15050 net.cpp:380] pool2 <- conv2
I1123 05:07:50.481029 15050 net.cpp:338] pool2 -> pool2
I1123 05:07:50.481037 15050 net.cpp:113] Setting up pool2
I1123 05:07:50.481168 15050 net.cpp:120] Top shape: 250 32 7 7 (392000)
I1123 05:07:50.481185 15050 layer_factory.hpp:74] Creating layer conv3
I1123 05:07:50.481194 15050 net.cpp:84] Creating Layer conv3
I1123 05:07:50.481199 15050 net.cpp:380] conv3 <- pool2
I1123 05:07:50.481207 15050 net.cpp:338] conv3 -> conv3
I1123 05:07:50.481215 15050 net.cpp:113] Setting up conv3
I1123 05:07:50.483064 15050 net.cpp:120] Top shape: 250 64 7 7 (784000)
I1123 05:07:50.483088 15050 layer_factory.hpp:74] Creating layer relu3
I1123 05:07:50.483098 15050 net.cpp:84] Creating Layer relu3
I1123 05:07:50.483103 15050 net.cpp:380] relu3 <- conv3
I1123 05:07:50.483109 15050 net.cpp:327] relu3 -> conv3 (in-place)
I1123 05:07:50.483116 15050 net.cpp:113] Setting up relu3
I1123 05:07:50.483165 15050 net.cpp:120] Top shape: 250 64 7 7 (784000)
I1123 05:07:50.483178 15050 layer_factory.hpp:74] Creating layer pool3
I1123 05:07:50.483187 15050 net.cpp:84] Creating Layer pool3
I1123 05:07:50.483192 15050 net.cpp:380] pool3 <- conv3
I1123 05:07:50.483198 15050 net.cpp:338] pool3 -> pool3
I1123 05:07:50.483206 15050 net.cpp:113] Setting up pool3
I1123 05:07:50.483254 15050 net.cpp:120] Top shape: 250 64 3 3 (144000)
I1123 05:07:50.483268 15050 layer_factory.hpp:74] Creating layer ip1
I1123 05:07:50.483280 15050 net.cpp:84] Creating Layer ip1
I1123 05:07:50.483285 15050 net.cpp:380] ip1 <- pool3
I1123 05:07:50.483292 15050 net.cpp:338] ip1 -> ip1
I1123 05:07:50.483305 15050 net.cpp:113] Setting up ip1
I1123 05:07:50.484501 15050 net.cpp:120] Top shape: 250 64 (16000)
I1123 05:07:50.484536 15050 layer_factory.hpp:74] Creating layer ip2_10
I1123 05:07:50.484552 15050 net.cpp:84] Creating Layer ip2_10
I1123 05:07:50.484557 15050 net.cpp:380] ip2_10 <- ip1
I1123 05:07:50.484565 15050 net.cpp:338] ip2_10 -> ip2_10
I1123 05:07:50.484573 15050 net.cpp:113] Setting up ip2_10
I1123 05:07:50.484628 15050 net.cpp:120] Top shape: 250 10 (2500)
I1123 05:07:50.484645 15050 layer_factory.hpp:74] Creating layer loss
I1123 05:07:50.484678 15050 net.cpp:84] Creating Layer loss
I1123 05:07:50.484683 15050 net.cpp:380] loss <- ip2_10
I1123 05:07:50.484689 15050 net.cpp:380] loss <- label
I1123 05:07:50.484697 15050 net.cpp:338] loss -> loss
I1123 05:07:50.484707 15050 net.cpp:113] Setting up loss
I1123 05:07:50.484720 15050 layer_factory.hpp:74] Creating layer loss
…
I1123 05:07:50.484927 15050 net.cpp:218] Memory required for data: 77099004
I1123 05:07:50.485396 15050 solver.cpp:154] Creating test net (#0) specified by net file: HaxHW3/train_val7.prototxt
I1123 05:07:50.485440 15050 net.cpp:257] The NetState phase (1) differed from the phase (0) specified by a rule in layer cifar
I1123 05:07:50.485581 15050 net.cpp:42] Initializing net from parameters: 
name: "Part 3"
state {
  phase: TEST
}
layer {
  name: "cifar"
  type: "Data"
  top: "data"
  top: "label"
  include {
    phase: TEST
  }
  data_param {
    source: "data/cifar10_test_lmdb"
    batch_size: 250
    backend: LMDB
  }
}
layer {
  name: "conv1"
  type: "Convolution"
  bottom: "data"
  top: "conv1"
  param {
    lr_mult: 1
  }
  param {
    lr_mult: 2
  }
  convolution_param {
    num_output: 32
    pad: 2
    kernel_size: 5
    stride: 1
    weight_filler {
      type: "gaussian"
      std: 0.0001
    }
    bias_filler {
      type: "constant"
    }
  }
}
layer {
  name: "pool1"
  type: "Pooling"
  bottom: "conv1"
  top: "pool1"
  pooling_param {
    pool: MAX
    kernel_size: 3
    stride: 2
  }
}
layer {
  name: "relu1"
  type: "ReLU"
  bottom: "pool1"
  top: "pool1"
}
layer {
  name: "conv2"
  type: "Convolution"
  bottom: "pool1"
  top: "conv2"
  param {
    lr_mult: 1
  }
  param {
    lr_mult: 2
  }
  convolution_param {
    num_output: 32
    pad: 2
    kernel_size: 5
    stride: 1
    weight_filler {
      type: "gaussian"
      std: 0.01
    }
    bias_filler {
      type: "constant"
    }
  }
}
layer {
  name: "relu2"
  type: "ReLU"
  bottom: "conv2"
  top: "conv2"
}
layer {
  name: "pool2"
  type: "Pooling"
  bottom: "conv2"
  top: "pool2"
  pooling_param {
    pool: AVE
    kernel_size: 5
    stride: 2
  }
}
layer {
  name: "conv3"
  type: "Convolution"
  bottom: "pool2"
  top: "conv3"
  param {
    lr_mult: 1
  }
  param {
    lr_mult: 2
  }
  convolution_param {
    num_output: 64
    pad: 2
    kernel_size: 5
    stride: 1
    weight_filler {
      type: "gaussian"
      std: 0.01
    }
    bias_filler {
      type: "constant"
    }
  }
}
layer {
  name: "relu3"
  type: "ReLU"
  bottom: "conv3"
  top: "conv3"
}
layer {
  name: "pool3"
  type: "Pooling"
  bottom: "conv3"
  top: "pool3"
  pooling_param {
    pool: AVE
    kernel_size: 3
    stride: 2
  }
}
layer {
  name: "ip1"
  type: "InnerProduct"
  bottom: "pool3"
  top: "ip1"
  param {
    lr_mult: 1
  }
  param {
    lr_mult: 2
  }
  inner_product_param {
    num_output: 64
    weight_filler {
      type: "gaussian"
      std: 0.1
    }
    bias_filler {
      type: "constant"
    }
  }
}
layer {
  name: "ip2_10"
  type: "InnerProduct"
  bottom: "ip1"
  top: "ip2_10"
  param {
    lr_mult: 100
  }
  param {
    lr_mult: 100
  }
  inner_product_param {
    num_output: 10
    weight_filler {
      type: "gaussian"
      std: 0.1
    }
    bias_filler {
      type: "constant"
    }
  }
}
layer {
  name: "accuracy"
  type: "Accuracy"
  bottom: "ip2_10"
  bottom: "label"
  top: "accuracy"
  include {
    phase: TEST
  }
}
layer {
  name: "loss"
  type: "SoftmaxWithLoss"
  bottom: "ip2_10"
  bottom: "label"
  top: "loss"
}
I1123 05:07:50.485689 15050 layer_factory.hpp:74] Creating layer cifar
I1123 05:07:50.485702 15050 net.cpp:84] Creating Layer cifar
I1123 05:07:50.485707 15050 net.cpp:338] cifar -> data
I1123 05:07:50.485718 15050 net.cpp:338] cifar -> label
I1123 05:07:50.485725 15050 net.cpp:113] Setting up cifar
I1123 05:07:50.485779 15050 db.cpp:34] Opened lmdb data/cifar10_test_lmdb
I1123 05:07:50.485806 15050 data_layer.cpp:67] output data size: 250,3,32,32
I1123 05:07:50.486737 15050 net.cpp:120] Top shape: 250 3 32 32 (768000)
I1123 05:07:50.486752 15050 net.cpp:120] Top shape: 250 (250)
I1123 05:07:50.486758 15050 layer_factory.hpp:74] Creating layer label_cifar_1_split
I1123 05:07:50.486768 15050 net.cpp:84] Creating Layer label_cifar_1_split
I1123 05:07:50.486773 15050 net.cpp:380] label_cifar_1_split <- label
I1123 05:07:50.486779 15050 net.cpp:338] label_cifar_1_split -> label_cifar_1_split_0
I1123 05:07:50.486790 15050 net.cpp:338] label_cifar_1_split -> label_cifar_1_split_1
I1123 05:07:50.486798 15050 net.cpp:113] Setting up label_cifar_1_split
I1123 05:07:50.486809 15050 net.cpp:120] Top shape: 250 (250)
I1123 05:07:50.486816 15050 net.cpp:120] Top shape: 250 (250)
I1123 05:07:50.486821 15050 layer_factory.hpp:74] Creating layer conv1
I1123 05:07:50.486829 15050 net.cpp:84] Creating Layer conv1
I1123 05:07:50.486835 15050 net.cpp:380] conv1 <- data
I1123 05:07:50.486841 15050 net.cpp:338] conv1 -> conv1
I1123 05:07:50.486850 15050 net.cpp:113] Setting up conv1
I1123 05:07:50.487184 15050 net.cpp:120] Top shape: 250 32 32 32 (8192000)
I1123 05:07:50.487207 15050 layer_factory.hpp:74] Creating layer pool1
I1123 05:07:50.487215 15050 net.cpp:84] Creating Layer pool1
I1123 05:07:50.487221 15050 net.cpp:380] pool1 <- conv1
I1123 05:07:50.487227 15050 net.cpp:338] pool1 -> pool1
I1123 05:07:50.487234 15050 net.cpp:113] Setting up pool1
I1123 05:07:50.487368 15050 net.cpp:120] Top shape: 250 32 16 16 (2048000)
I1123 05:07:50.487385 15050 layer_factory.hpp:74] Creating layer relu1
I1123 05:07:50.487396 15050 net.cpp:84] Creating Layer relu1
I1123 05:07:50.487401 15050 net.cpp:380] relu1 <- pool1
I1123 05:07:50.487406 15050 net.cpp:327] relu1 -> pool1 (in-place)
I1123 05:07:50.487413 15050 net.cpp:113] Setting up relu1
I1123 05:07:50.487462 15050 net.cpp:120] Top shape: 250 32 16 16 (2048000)
I1123 05:07:50.487474 15050 layer_factory.hpp:74] Creating layer conv2
I1123 05:07:50.487483 15050 net.cpp:84] Creating Layer conv2
I1123 05:07:50.487488 15050 net.cpp:380] conv2 <- pool1
I1123 05:07:50.487495 15050 net.cpp:338] conv2 -> conv2
I1123 05:07:50.487504 15050 net.cpp:113] Setting up conv2
I1123 05:07:50.488590 15050 net.cpp:120] Top shape: 250 32 16 16 (2048000)
I1123 05:07:50.488612 15050 layer_factory.hpp:74] Creating layer relu2
I1123 05:07:50.488621 15050 net.cpp:84] Creating Layer relu2
I1123 05:07:50.488626 15050 net.cpp:380] relu2 <- conv2
I1123 05:07:50.488633 15050 net.cpp:327] relu2 -> conv2 (in-place)
I1123 05:07:50.488641 15050 net.cpp:113] Setting up relu2
I1123 05:07:50.488689 15050 net.cpp:120] Top shape: 250 32 16 16 (2048000)
I1123 05:07:50.488703 15050 layer_factory.hpp:74] Creating layer pool2
I1123 05:07:50.488710 15050 net.cpp:84] Creating Layer pool2
I1123 05:07:50.488715 15050 net.cpp:380] pool2 <- conv2
I1123 05:07:50.488723 15050 net.cpp:338] pool2 -> pool2
I1123 05:07:50.488744 15050 net.cpp:113] Setting up pool2
I1123 05:07:50.488793 15050 net.cpp:120] Top shape: 250 32 7 7 (392000)
I1123 05:07:50.488807 15050 layer_factory.hpp:74] Creating layer conv3
I1123 05:07:50.488826 15050 net.cpp:84] Creating Layer conv3
I1123 05:07:50.488831 15050 net.cpp:380] conv3 <- pool2
I1123 05:07:50.488837 15050 net.cpp:338] conv3 -> conv3
I1123 05:07:50.488847 15050 net.cpp:113] Setting up conv3
I1123 05:07:50.490705 15050 net.cpp:120] Top shape: 250 64 7 7 (784000)
I1123 05:07:50.490728 15050 layer_factory.hpp:74] Creating layer relu3
I1123 05:07:50.490736 15050 net.cpp:84] Creating Layer relu3
I1123 05:07:50.490742 15050 net.cpp:380] relu3 <- conv3
I1123 05:07:50.490749 15050 net.cpp:327] relu3 -> conv3 (in-place)
I1123 05:07:50.490756 15050 net.cpp:113] Setting up relu3
I1123 05:07:50.490885 15050 net.cpp:120] Top shape: 250 64 7 7 (784000)
I1123 05:07:50.490900 15050 layer_factory.hpp:74] Creating layer pool3
I1123 05:07:50.490910 15050 net.cpp:84] Creating Layer pool3
I1123 05:07:50.490916 15050 net.cpp:380] pool3 <- conv3
I1123 05:07:50.490924 15050 net.cpp:338] pool3 -> pool3
I1123 05:07:50.490931 15050 net.cpp:113] Setting up pool3
I1123 05:07:50.490981 15050 net.cpp:120] Top shape: 250 64 3 3 (144000)
I1123 05:07:50.490994 15050 layer_factory.hpp:74] Creating layer ip1
I1123 05:07:50.491003 15050 net.cpp:84] Creating Layer ip1
I1123 05:07:50.491008 15050 net.cpp:380] ip1 <- pool3
I1123 05:07:50.491014 15050 net.cpp:338] ip1 -> ip1
I1123 05:07:50.491022 15050 net.cpp:113] Setting up ip1
I1123 05:07:50.492202 15050 net.cpp:120] Top shape: 250 64 (16000)
I1123 05:07:50.492218 15050 layer_factory.hpp:74] Creating layer ip2_10
I1123 05:07:50.492226 15050 net.cpp:84] Creating Layer ip2_10
I1123 05:07:50.492231 15050 net.cpp:380] ip2_10 <- ip1
I1123 05:07:50.492238 15050 net.cpp:338] ip2_10 -> ip2_10
I1123 05:07:50.492246 15050 net.cpp:113] Setting up ip2_10
I1123 05:07:50.492279 15050 net.cpp:120] Top shape: 250 10 (2500)
I1123 05:07:50.492293 15050 layer_factory.hpp:74] Creating layer ip2_10_ip2_10_0_split
I1123 05:07:50.492300 15050 net.cpp:84] Creating Layer ip2_10_ip2_10_0_split
I1123 05:07:50.492305 15050 net.cpp:380] ip2_10_ip2_10_0_split <- ip2_10
I1123 05:07:50.492311 15050 net.cpp:338] ip2_10_ip2_10_0_split -> ip2_10_ip2_10_0_split_0
I1123 05:07:50.492319 15050 net.cpp:338] ip2_10_ip2_10_0_split -> ip2_10_ip2_10_0_split_1
I1123 05:07:50.492326 15050 net.cpp:113] Setting up ip2_10_ip2_10_0_split
I1123 05:07:50.492332 15050 net.cpp:120] Top shape: 250 10 (2500)
I1123 05:07:50.492338 15050 net.cpp:120] Top shape: 250 10 (2500)
I1123 05:07:50.492342 15050 layer_factory.hpp:74] Creating layer accuracy
I1123 05:07:50.492352 15050 net.cpp:84] Creating Layer accuracy
I1123 05:07:50.492357 15050 net.cpp:380] accuracy <- ip2_10_ip2_10_0_split_0
I1123 05:07:50.492362 15050 net.cpp:380] accuracy <- label_cifar_1_split_0
I1123 05:07:50.492369 15050 net.cpp:338] accuracy -> accuracy
I1123 05:07:50.492377 15050 net.cpp:113] Setting up accuracy
…
