…
I1122 07:09:00.780292 26933 net.cpp:257] The NetState phase (0) differed from the phase (1) specified by a rule in layer cifar
I1122 07:09:00.780313 26933 net.cpp:257] The NetState phase (0) differed from the phase (1) specified by a rule in layer accuracy
I1122 07:09:00.780411 26933 net.cpp:42] Initializing net from parameters: 
name: "Part 6A"
state {
  phase: TRAIN
}
layer {
  name: "cifar"
  type: "ImageData"
  top: "data"
  top: "label"
  include {
    phase: TRAIN
  }
  image_data_param {
    source: "data/train.txt"
    batch_size: 250
  }
}
layer {
  name: "conv1"
  type: "Convolution"
  bottom: "data"
  top: "conv1"
  param {
    lr_mult: 1
  }
  param {
    lr_mult: 2
  }
  convolution_param {
    num_output: 64
    pad: 2
    kernel_size: 20
    stride: 1
    weight_filler {
      type: "gaussian"
      std: 0.0001
    }
    bias_filler {
      type: "constant"
    }
  }
}
layer {
  name: "pool1"
  type: "Pooling"
  bottom: "conv1"
  top: "pool1"
  pooling_param {
    pool: MAX
    kernel_size: 3
    stride: 2
  }
}
layer {
  name: "relu1"
  type: "ReLU"
  bottom: "pool1"
  top: "pool1"
}
layer {
  name: "ip1"
  type: "InnerProduct"
  bottom: "pool1"
  top: "ip1"
  param {
    lr_mult: 1
  }
  param {
    lr_mult: 2
  }
  inner_product_param {
    num_output: 64
    weight_filler {
      type: "gaussian"
      std: 0.1
    }
    bias_filler {
      type: "constant"
    }
  }
}
layer {
  name: "ip2"
  type: "InnerProduct"
  bottom: "ip1"
  top: "ip2"
  param {
    lr_mult: 1
  }
  param {
    lr_mult: 2
  }
  inner_product_param {
    num_output: 100
    weight_filler {
      type: "gaussian"
      std: 0.1
    }
    bias_filler {
      type: "constant"
    }
  }
}
layer {
  name: "loss"
  type: "SoftmaxWithLoss"
  bottom: "ip2"
  bottom: "label"
  top: "loss"
}
I1122 07:09:00.780503 26933 layer_factory.hpp:74] Creating layer cifar
I1122 07:09:00.780573 26933 net.cpp:84] Creating Layer cifar
I1122 07:09:00.780589 26933 net.cpp:338] cifar -> data
I1122 07:09:00.780627 26933 net.cpp:338] cifar -> label
I1122 07:09:00.780642 26933 net.cpp:113] Setting up cifar
I1122 07:09:00.780654 26933 image_data_layer.cpp:36] Opening file data/train.txt
I1122 07:09:00.801957 26933 image_data_layer.cpp:51] A total of 50000 images.
I1122 07:09:00.802247 26933 image_data_layer.cpp:80] output data size: 250,3,32,32
I1122 07:09:00.803637 26933 net.cpp:120] Top shape: 250 3 32 32 (768000)
I1122 07:09:00.803652 26933 net.cpp:120] Top shape: 250 (250)
I1122 07:09:00.803660 26933 layer_factory.hpp:74] Creating layer conv1
I1122 07:09:00.803678 26933 net.cpp:84] Creating Layer conv1
I1122 07:09:00.803688 26933 net.cpp:380] conv1 <- data
I1122 07:09:00.803701 26933 net.cpp:338] conv1 -> conv1
I1122 07:09:00.803716 26933 net.cpp:113] Setting up conv1
I1122 07:09:00.869160 26933 net.cpp:120] Top shape: 250 64 17 17 (4624000)
I1122 07:09:00.869218 26933 layer_factory.hpp:74] Creating layer pool1
I1122 07:09:00.869245 26933 net.cpp:84] Creating Layer pool1
I1122 07:09:00.869253 26933 net.cpp:380] pool1 <- conv1
I1122 07:09:00.869266 26933 net.cpp:338] pool1 -> pool1
I1122 07:09:00.869279 26933 net.cpp:113] Setting up pool1
I1122 07:09:00.869456 26933 net.cpp:120] Top shape: 250 64 8 8 (1024000)
I1122 07:09:00.869467 26933 layer_factory.hpp:74] Creating layer relu1
I1122 07:09:00.869479 26933 net.cpp:84] Creating Layer relu1
I1122 07:09:00.869485 26933 net.cpp:380] relu1 <- pool1
I1122 07:09:00.869494 26933 net.cpp:327] relu1 -> pool1 (in-place)
I1122 07:09:00.869503 26933 net.cpp:113] Setting up relu1
I1122 07:09:00.869572 26933 net.cpp:120] Top shape: 250 64 8 8 (1024000)
I1122 07:09:00.869582 26933 layer_factory.hpp:74] Creating layer ip1
I1122 07:09:00.869608 26933 net.cpp:84] Creating Layer ip1
I1122 07:09:00.869616 26933 net.cpp:380] ip1 <- pool1
I1122 07:09:00.869624 26933 net.cpp:338] ip1 -> ip1
I1122 07:09:00.869639 26933 net.cpp:113] Setting up ip1
I1122 07:09:00.877956 26933 net.cpp:120] Top shape: 250 64 (16000)
I1122 07:09:00.877974 26933 layer_factory.hpp:74] Creating layer ip2
I1122 07:09:00.877985 26933 net.cpp:84] Creating Layer ip2
I1122 07:09:00.877992 26933 net.cpp:380] ip2 <- ip1
I1122 07:09:00.878001 26933 net.cpp:338] ip2 -> ip2
I1122 07:09:00.878011 26933 net.cpp:113] Setting up ip2
I1122 07:09:00.878226 26933 net.cpp:120] Top shape: 250 100 (25000)
I1122 07:09:00.878238 26933 layer_factory.hpp:74] Creating layer loss
I1122 07:09:00.878252 26933 net.cpp:84] Creating Layer loss
I1122 07:09:00.878257 26933 net.cpp:380] loss <- ip2
I1122 07:09:00.878264 26933 net.cpp:380] loss <- label
I1122 07:09:00.878278 26933 net.cpp:338] loss -> loss
I1122 07:09:00.878288 26933 net.cpp:113] Setting up loss
I1122 07:09:00.878303 26933 layer_factory.hpp:74] Creating layer loss
…
I1122 07:09:00.878505 26933 net.cpp:218] Memory required for data: 29925004
I1122 07:09:00.878854 26933 solver.cpp:154] Creating test net (#0) specified by net file: WeaHW3/train_val6a.prototxt
I1122 07:09:00.878895 26933 net.cpp:257] The NetState phase (1) differed from the phase (0) specified by a rule in layer cifar
I1122 07:09:00.879012 26933 net.cpp:42] Initializing net from parameters: 
name: "Part 6A"
state {
  phase: TEST
}
layer {
  name: "cifar"
  type: "ImageData"
  top: "data"
  top: "label"
  include {
    phase: TEST
  }
  image_data_param {
    source: "data/test.txt"
    batch_size: 250
  }
}
layer {
  name: "conv1"
  type: "Convolution"
  bottom: "data"
  top: "conv1"
  param {
    lr_mult: 1
  }
  param {
    lr_mult: 2
  }
  convolution_param {
    num_output: 64
    pad: 2
    kernel_size: 20
    stride: 1
    weight_filler {
      type: "gaussian"
      std: 0.0001
    }
    bias_filler {
      type: "constant"
    }
  }
}
layer {
  name: "pool1"
  type: "Pooling"
  bottom: "conv1"
  top: "pool1"
  pooling_param {
    pool: MAX
    kernel_size: 3
    stride: 2
  }
}
layer {
  name: "relu1"
  type: "ReLU"
  bottom: "pool1"
  top: "pool1"
}
layer {
  name: "ip1"
  type: "InnerProduct"
  bottom: "pool1"
  top: "ip1"
  param {
    lr_mult: 1
  }
  param {
    lr_mult: 2
  }
  inner_product_param {
    num_output: 64
    weight_filler {
      type: "gaussian"
      std: 0.1
    }
    bias_filler {
      type: "constant"
    }
  }
}
layer {
  name: "ip2"
  type: "InnerProduct"
  bottom: "ip1"
  top: "ip2"
  param {
    lr_mult: 1
  }
  param {
    lr_mult: 2
  }
  inner_product_param {
    num_output: 100
    weight_filler {
      type: "gaussian"
      std: 0.1
    }
    bias_filler {
      type: "constant"
    }
  }
}
layer {
  name: "accuracy"
  type: "Accuracy"
  bottom: "ip2"
  bottom: "label"
  top: "accuracy"
  include {
    phase: TEST
  }
}
layer {
  name: "loss"
  type: "SoftmaxWithLoss"
  bottom: "ip2"
  bottom: "label"
  top: "loss"
}
I1122 07:09:00.879096 26933 layer_factory.hpp:74] Creating layer cifar
I1122 07:09:00.879117 26933 net.cpp:84] Creating Layer cifar
I1122 07:09:00.879133 26933 net.cpp:338] cifar -> data
I1122 07:09:00.879145 26933 net.cpp:338] cifar -> label
I1122 07:09:00.879155 26933 net.cpp:113] Setting up cifar
I1122 07:09:00.879163 26933 image_data_layer.cpp:36] Opening file data/test.txt
I1122 07:09:00.883146 26933 image_data_layer.cpp:51] A total of 10000 images.
I1122 07:09:00.883321 26933 image_data_layer.cpp:80] output data size: 250,3,32,32
I1122 07:09:00.884325 26933 net.cpp:120] Top shape: 250 3 32 32 (768000)
I1122 07:09:00.884337 26933 net.cpp:120] Top shape: 250 (250)
I1122 07:09:00.884346 26933 layer_factory.hpp:74] Creating layer label_cifar_1_split
I1122 07:09:00.884356 26933 net.cpp:84] Creating Layer label_cifar_1_split
I1122 07:09:00.884364 26933 net.cpp:380] label_cifar_1_split <- label
I1122 07:09:00.884372 26933 net.cpp:338] label_cifar_1_split -> label_cifar_1_split_0
I1122 07:09:00.884383 26933 net.cpp:338] label_cifar_1_split -> label_cifar_1_split_1
I1122 07:09:00.884397 26933 net.cpp:113] Setting up label_cifar_1_split
I1122 07:09:00.884413 26933 net.cpp:120] Top shape: 250 (250)
I1122 07:09:00.884420 26933 net.cpp:120] Top shape: 250 (250)
I1122 07:09:00.884426 26933 layer_factory.hpp:74] Creating layer conv1
I1122 07:09:00.884438 26933 net.cpp:84] Creating Layer conv1
I1122 07:09:00.884443 26933 net.cpp:380] conv1 <- data
I1122 07:09:00.884452 26933 net.cpp:338] conv1 -> conv1
I1122 07:09:00.884462 26933 net.cpp:113] Setting up conv1
I1122 07:09:00.887434 26933 net.cpp:120] Top shape: 250 64 17 17 (4624000)
I1122 07:09:00.887459 26933 layer_factory.hpp:74] Creating layer pool1
I1122 07:09:00.887472 26933 net.cpp:84] Creating Layer pool1
I1122 07:09:00.887480 26933 net.cpp:380] pool1 <- conv1
I1122 07:09:00.887492 26933 net.cpp:338] pool1 -> pool1
I1122 07:09:00.887502 26933 net.cpp:113] Setting up pool1
I1122 07:09:00.887657 26933 net.cpp:120] Top shape: 250 64 8 8 (1024000)
I1122 07:09:00.887670 26933 layer_factory.hpp:74] Creating layer relu1
I1122 07:09:00.887679 26933 net.cpp:84] Creating Layer relu1
I1122 07:09:00.887691 26933 net.cpp:380] relu1 <- pool1
I1122 07:09:00.887701 26933 net.cpp:327] relu1 -> pool1 (in-place)
I1122 07:09:00.887712 26933 net.cpp:113] Setting up relu1
I1122 07:09:00.887775 26933 net.cpp:120] Top shape: 250 64 8 8 (1024000)
I1122 07:09:00.887784 26933 layer_factory.hpp:74] Creating layer ip1
I1122 07:09:00.887794 26933 net.cpp:84] Creating Layer ip1
I1122 07:09:00.887800 26933 net.cpp:380] ip1 <- pool1
I1122 07:09:00.887814 26933 net.cpp:338] ip1 -> ip1
I1122 07:09:00.887825 26933 net.cpp:113] Setting up ip1
I1122 07:09:00.897305 26933 net.cpp:120] Top shape: 250 64 (16000)
I1122 07:09:00.897330 26933 layer_factory.hpp:74] Creating layer ip2
I1122 07:09:00.897341 26933 net.cpp:84] Creating Layer ip2
I1122 07:09:00.897346 26933 net.cpp:380] ip2 <- ip1
I1122 07:09:00.897356 26933 net.cpp:338] ip2 -> ip2
I1122 07:09:00.897366 26933 net.cpp:113] Setting up ip2
I1122 07:09:00.897608 26933 net.cpp:120] Top shape: 250 100 (25000)
I1122 07:09:00.897620 26933 layer_factory.hpp:74] Creating layer ip2_ip2_0_split
I1122 07:09:00.897632 26933 net.cpp:84] Creating Layer ip2_ip2_0_split
I1122 07:09:00.897639 26933 net.cpp:380] ip2_ip2_0_split <- ip2
I1122 07:09:00.897650 26933 net.cpp:338] ip2_ip2_0_split -> ip2_ip2_0_split_0
I1122 07:09:00.897665 26933 net.cpp:338] ip2_ip2_0_split -> ip2_ip2_0_split_1
I1122 07:09:00.897675 26933 net.cpp:113] Setting up ip2_ip2_0_split
I1122 07:09:00.897683 26933 net.cpp:120] Top shape: 250 100 (25000)
I1122 07:09:00.897691 26933 net.cpp:120] Top shape: 250 100 (25000)
I1122 07:09:00.897697 26933 layer_factory.hpp:74] Creating layer accuracy
I1122 07:09:00.897712 26933 net.cpp:84] Creating Layer accuracy
I1122 07:09:00.897718 26933 net.cpp:380] accuracy <- ip2_ip2_0_split_0
I1122 07:09:00.897727 26933 net.cpp:380] accuracy <- label_cifar_1_split_0
I1122 07:09:00.897734 26933 net.cpp:338] accuracy -> accuracy
I1122 07:09:00.897747 26933 net.cpp:113] Setting up accuracy
…
