…
I1122 08:15:04.059365 13637 net.cpp:257] The NetState phase (0) differed from the phase (1) specified by a rule in layer cifar
I1122 08:15:04.059392 13637 net.cpp:257] The NetState phase (0) differed from the phase (1) specified by a rule in layer accuracy
I1122 08:15:04.059535 13637 net.cpp:42] Initializing net from parameters: 
name: "Part 6B"
state {
  phase: TRAIN
}
layer {
  name: "cifar"
  type: "ImageData"
  top: "data"
  top: "label"
  include {
    phase: TRAIN
  }
  image_data_param {
    source: "data/train.txt"
    batch_size: 250
  }
}
layer {
  name: "conv1"
  type: "Convolution"
  bottom: "data"
  top: "conv1"
  param {
    lr_mult: 1
  }
  param {
    lr_mult: 2
  }
  convolution_param {
    num_output: 32
    pad: 2
    kernel_size: 3
    stride: 1
    weight_filler {
      type: "gaussian"
      std: 0.0001
    }
    bias_filler {
      type: "constant"
    }
  }
}
layer {
  name: "pool1"
  type: "Pooling"
  bottom: "conv1"
  top: "pool1"
  pooling_param {
    pool: MAX
    kernel_size: 3
    stride: 2
  }
}
layer {
  name: "relu1"
  type: "ReLU"
  bottom: "pool1"
  top: "pool1"
}
layer {
  name: "conv2"
  type: "Convolution"
  bottom: "pool1"
  top: "conv2"
  param {
    lr_mult: 1
  }
  param {
    lr_mult: 2
  }
  convolution_param {
    num_output: 32
    pad: 2
    kernel_size: 3
    stride: 1
    weight_filler {
      type: "gaussian"
      std: 0.01
    }
    bias_filler {
      type: "constant"
    }
  }
}
layer {
  name: "relu2"
  type: "ReLU"
  bottom: "conv2"
  top: "conv2"
}
layer {
  name: "pool2"
  type: "Pooling"
  bottom: "conv2"
  top: "pool2"
  pooling_param {
    pool: AVE
    kernel_size: 5
    stride: 2
  }
}
layer {
  name: "conv3"
  type: "Convolution"
  bottom: "pool2"
  top: "conv3"
  param {
    lr_mult: 1
  }
  param {
    lr_mult: 2
  }
  convolution_param {
    num_output: 32
    pad: 2
    kernel_size: 7
    stride: 1
    weight_filler {
      type: "gaussian"
      std: 0.01
    }
    bias_filler {
      type: "constant"
    }
  }
}
layer {
  name: "relu3"
  type: "ReLU"
  bottom: "conv3"
  top: "conv3"
}
layer {
  name: "pool3"
  type: "Pooling"
  bottom: "conv3"
  top: "pool3"
  pooling_param {
    pool: AVE
    kernel_size: 3
    stride: 2
  }
}
layer {
  name: "conv4"
  type: "Convolution"
  bottom: "pool3"
  top: "conv4"
  param {
    lr_mult: 1
  }
  param {
    lr_mult: 2
  }
  convolution_param {
    num_output: 64
    pad: 2
    kernel_size: 3
    stride: 1
    weight_filler {
      type: "gaussian"
      std: 0.01
    }
    bias_filler {
      type: "constant"
    }
  }
}
layer {
  name: "relu4"
  type: "ReLU"
  bottom: "conv4"
  top: "conv4"
}
layer {
  name: "pool4"
  type: "Pooling"
  bottom: "conv4"
  top: "pool4"
  pooling_param {
    pool: AVE
    kernel_size: 3
    stride: 2
  }
}
layer {
  name: "ip1"
  type: "InnerProduct"
  bottom: "pool4"
  top: "ip1"
  param {
    lr_mult: 1
  }
  param {
    lr_mult: 2
  }
  inner_product_param {
    num_output: 64
    weight_filler {
      type: "gaussian"
      std: 0.1
    }
    bias_filler {
      type: "constant"
    }
  }
}
layer {
  name: "ip2"
  type: "InnerProduct"
  bottom: "ip1"
  top: "ip2"
  param {
    lr_mult: 1
  }
  param {
    lr_mult: 2
  }
  inner_product_param {
    num_output: 100
    weight_filler {
      type: "gaussian"
      std: 0.1
    }
    bias_filler {
      type: "constant"
    }
  }
}
layer {
  name: "loss"
  type: "SoftmaxWithLoss"
  bottom: "ip2"
  bottom: "label"
  top: "loss"
}
I1122 08:15:04.059654 13637 layer_factory.hpp:74] Creating layer cifar
I1122 08:15:04.059697 13637 net.cpp:84] Creating Layer cifar
I1122 08:15:04.059711 13637 net.cpp:338] cifar -> data
I1122 08:15:04.059767 13637 net.cpp:338] cifar -> label
I1122 08:15:04.059782 13637 net.cpp:113] Setting up cifar
I1122 08:15:04.059798 13637 image_data_layer.cpp:36] Opening file data/train.txt
I1122 08:15:04.081079 13637 image_data_layer.cpp:51] A total of 50000 images.
I1122 08:15:04.081362 13637 image_data_layer.cpp:80] output data size: 250,3,32,32
I1122 08:15:04.082355 13637 net.cpp:120] Top shape: 250 3 32 32 (768000)
I1122 08:15:04.082368 13637 net.cpp:120] Top shape: 250 (250)
I1122 08:15:04.082377 13637 layer_factory.hpp:74] Creating layer conv1
I1122 08:15:04.082394 13637 net.cpp:84] Creating Layer conv1
I1122 08:15:04.082403 13637 net.cpp:380] conv1 <- data
I1122 08:15:04.082417 13637 net.cpp:338] conv1 -> conv1
I1122 08:15:04.082437 13637 net.cpp:113] Setting up conv1
I1122 08:15:04.149009 13637 net.cpp:120] Top shape: 250 32 34 34 (9248000)
I1122 08:15:04.149067 13637 layer_factory.hpp:74] Creating layer pool1
I1122 08:15:04.149093 13637 net.cpp:84] Creating Layer pool1
I1122 08:15:04.149102 13637 net.cpp:380] pool1 <- conv1
I1122 08:15:04.149114 13637 net.cpp:338] pool1 -> pool1
I1122 08:15:04.149127 13637 net.cpp:113] Setting up pool1
I1122 08:15:04.149294 13637 net.cpp:120] Top shape: 250 32 17 17 (2312000)
I1122 08:15:04.149307 13637 layer_factory.hpp:74] Creating layer relu1
I1122 08:15:04.149317 13637 net.cpp:84] Creating Layer relu1
I1122 08:15:04.149324 13637 net.cpp:380] relu1 <- pool1
I1122 08:15:04.149333 13637 net.cpp:327] relu1 -> pool1 (in-place)
I1122 08:15:04.149341 13637 net.cpp:113] Setting up relu1
I1122 08:15:04.149396 13637 net.cpp:120] Top shape: 250 32 17 17 (2312000)
I1122 08:15:04.149405 13637 layer_factory.hpp:74] Creating layer conv2
I1122 08:15:04.149420 13637 net.cpp:84] Creating Layer conv2
I1122 08:15:04.149426 13637 net.cpp:380] conv2 <- pool1
I1122 08:15:04.149435 13637 net.cpp:338] conv2 -> conv2
I1122 08:15:04.149448 13637 net.cpp:113] Setting up conv2
I1122 08:15:04.149992 13637 net.cpp:120] Top shape: 250 32 19 19 (2888000)
I1122 08:15:04.150009 13637 layer_factory.hpp:74] Creating layer relu2
I1122 08:15:04.150019 13637 net.cpp:84] Creating Layer relu2
I1122 08:15:04.150027 13637 net.cpp:380] relu2 <- conv2
I1122 08:15:04.150034 13637 net.cpp:327] relu2 -> conv2 (in-place)
I1122 08:15:04.150043 13637 net.cpp:113] Setting up relu2
I1122 08:15:04.150090 13637 net.cpp:120] Top shape: 250 32 19 19 (2888000)
I1122 08:15:04.150099 13637 layer_factory.hpp:74] Creating layer pool2
I1122 08:15:04.150109 13637 net.cpp:84] Creating Layer pool2
I1122 08:15:04.150115 13637 net.cpp:380] pool2 <- conv2
I1122 08:15:04.150122 13637 net.cpp:338] pool2 -> pool2
I1122 08:15:04.150131 13637 net.cpp:113] Setting up pool2
I1122 08:15:04.150259 13637 net.cpp:120] Top shape: 250 32 8 8 (512000)
I1122 08:15:04.150271 13637 layer_factory.hpp:74] Creating layer conv3
I1122 08:15:04.150282 13637 net.cpp:84] Creating Layer conv3
I1122 08:15:04.150290 13637 net.cpp:380] conv3 <- pool2
I1122 08:15:04.150298 13637 net.cpp:338] conv3 -> conv3
I1122 08:15:04.150310 13637 net.cpp:113] Setting up conv3
I1122 08:15:04.152127 13637 net.cpp:120] Top shape: 250 32 6 6 (288000)
I1122 08:15:04.152145 13637 layer_factory.hpp:74] Creating layer relu3
I1122 08:15:04.152156 13637 net.cpp:84] Creating Layer relu3
I1122 08:15:04.152163 13637 net.cpp:380] relu3 <- conv3
I1122 08:15:04.152170 13637 net.cpp:327] relu3 -> conv3 (in-place)
I1122 08:15:04.152179 13637 net.cpp:113] Setting up relu3
I1122 08:15:04.152227 13637 net.cpp:120] Top shape: 250 32 6 6 (288000)
I1122 08:15:04.152236 13637 layer_factory.hpp:74] Creating layer pool3
I1122 08:15:04.152245 13637 net.cpp:84] Creating Layer pool3
I1122 08:15:04.152251 13637 net.cpp:380] pool3 <- conv3
I1122 08:15:04.152259 13637 net.cpp:338] pool3 -> pool3
I1122 08:15:04.152268 13637 net.cpp:113] Setting up pool3
I1122 08:15:04.152317 13637 net.cpp:120] Top shape: 250 32 3 3 (72000)
I1122 08:15:04.152324 13637 layer_factory.hpp:74] Creating layer conv4
I1122 08:15:04.152345 13637 net.cpp:84] Creating Layer conv4
I1122 08:15:04.152353 13637 net.cpp:380] conv4 <- pool3
I1122 08:15:04.152371 13637 net.cpp:338] conv4 -> conv4
I1122 08:15:04.152382 13637 net.cpp:113] Setting up conv4
I1122 08:15:04.153218 13637 net.cpp:120] Top shape: 250 64 5 5 (400000)
I1122 08:15:04.153234 13637 layer_factory.hpp:74] Creating layer relu4
I1122 08:15:04.153244 13637 net.cpp:84] Creating Layer relu4
I1122 08:15:04.153250 13637 net.cpp:380] relu4 <- conv4
I1122 08:15:04.153259 13637 net.cpp:327] relu4 -> conv4 (in-place)
I1122 08:15:04.153267 13637 net.cpp:113] Setting up relu4
I1122 08:15:04.153314 13637 net.cpp:120] Top shape: 250 64 5 5 (400000)
I1122 08:15:04.153322 13637 layer_factory.hpp:74] Creating layer pool4
I1122 08:15:04.153331 13637 net.cpp:84] Creating Layer pool4
I1122 08:15:04.153338 13637 net.cpp:380] pool4 <- conv4
I1122 08:15:04.153347 13637 net.cpp:338] pool4 -> pool4
I1122 08:15:04.153355 13637 net.cpp:113] Setting up pool4
I1122 08:15:04.153482 13637 net.cpp:120] Top shape: 250 64 2 2 (64000)
I1122 08:15:04.153496 13637 layer_factory.hpp:74] Creating layer ip1
I1122 08:15:04.153509 13637 net.cpp:84] Creating Layer ip1
I1122 08:15:04.153517 13637 net.cpp:380] ip1 <- pool4
I1122 08:15:04.153525 13637 net.cpp:338] ip1 -> ip1
I1122 08:15:04.153538 13637 net.cpp:113] Setting up ip1
I1122 08:15:04.154081 13637 net.cpp:120] Top shape: 250 64 (16000)
I1122 08:15:04.154096 13637 layer_factory.hpp:74] Creating layer ip2
I1122 08:15:04.154108 13637 net.cpp:84] Creating Layer ip2
I1122 08:15:04.154114 13637 net.cpp:380] ip2 <- ip1
I1122 08:15:04.154122 13637 net.cpp:338] ip2 -> ip2
I1122 08:15:04.154132 13637 net.cpp:113] Setting up ip2
I1122 08:15:04.154350 13637 net.cpp:120] Top shape: 250 100 (25000)
I1122 08:15:04.154359 13637 layer_factory.hpp:74] Creating layer loss
I1122 08:15:04.154371 13637 net.cpp:84] Creating Layer loss
I1122 08:15:04.154377 13637 net.cpp:380] loss <- ip2
I1122 08:15:04.154384 13637 net.cpp:380] loss <- label
I1122 08:15:04.154393 13637 net.cpp:338] loss -> loss
I1122 08:15:04.154404 13637 net.cpp:113] Setting up loss
I1122 08:15:04.154418 13637 layer_factory.hpp:74] Creating layer loss
…
I1122 08:15:04.154666 13637 net.cpp:218] Memory required for data: 89925004
I1122 08:15:04.155210 13637 solver.cpp:154] Creating test net (#0) specified by net file: WeaHW3/train_val6b.prototxt
I1122 08:15:04.155261 13637 net.cpp:257] The NetState phase (1) differed from the phase (0) specified by a rule in layer cifar
I1122 08:15:04.155414 13637 net.cpp:42] Initializing net from parameters: 
name: "Part 6B"
state {
  phase: TEST
}
layer {
  name: "cifar"
  type: "ImageData"
  top: "data"
  top: "label"
  include {
    phase: TEST
  }
  image_data_param {
    source: "data/test.txt"
    batch_size: 250
  }
}
layer {
  name: "conv1"
  type: "Convolution"
  bottom: "data"
  top: "conv1"
  param {
    lr_mult: 1
  }
  param {
    lr_mult: 2
  }
  convolution_param {
    num_output: 32
    pad: 2
    kernel_size: 3
    stride: 1
    weight_filler {
      type: "gaussian"
      std: 0.0001
    }
    bias_filler {
      type: "constant"
    }
  }
}
layer {
  name: "pool1"
  type: "Pooling"
  bottom: "conv1"
  top: "pool1"
  pooling_param {
    pool: MAX
    kernel_size: 3
    stride: 2
  }
}
layer {
  name: "relu1"
  type: "ReLU"
  bottom: "pool1"
  top: "pool1"
}
layer {
  name: "conv2"
  type: "Convolution"
  bottom: "pool1"
  top: "conv2"
  param {
    lr_mult: 1
  }
  param {
    lr_mult: 2
  }
  convolution_param {
    num_output: 32
    pad: 2
    kernel_size: 3
    stride: 1
    weight_filler {
      type: "gaussian"
      std: 0.01
    }
    bias_filler {
      type: "constant"
    }
  }
}
layer {
  name: "relu2"
  type: "ReLU"
  bottom: "conv2"
  top: "conv2"
}
layer {
  name: "pool2"
  type: "Pooling"
  bottom: "conv2"
  top: "pool2"
  pooling_param {
    pool: AVE
    kernel_size: 5
    stride: 2
  }
}
layer {
  name: "conv3"
  type: "Convolution"
  bottom: "pool2"
  top: "conv3"
  param {
    lr_mult: 1
  }
  param {
    lr_mult: 2
  }
  convolution_param {
    num_output: 32
    pad: 2
    kernel_size: 7
    stride: 1
    weight_filler {
      type: "gaussian"
      std: 0.01
    }
    bias_filler {
      type: "constant"
    }
  }
}
layer {
  name: "relu3"
  type: "ReLU"
  bottom: "conv3"
  top: "conv3"
}
layer {
  name: "pool3"
  type: "Pooling"
  bottom: "conv3"
  top: "pool3"
  pooling_param {
    pool: AVE
    kernel_size: 3
    stride: 2
  }
}
layer {
  name: "conv4"
  type: "Convolution"
  bottom: "pool3"
  top: "conv4"
  param {
    lr_mult: 1
  }
  param {
    lr_mult: 2
  }
  convolution_param {
    num_output: 64
    pad: 2
    kernel_size: 3
    stride: 1
    weight_filler {
      type: "gaussian"
      std: 0.01
    }
    bias_filler {
      type: "constant"
    }
  }
}
layer {
  name: "relu4"
  type: "ReLU"
  bottom: "conv4"
  top: "conv4"
}
layer {
  name: "pool4"
  type: "Pooling"
  bottom: "conv4"
  top: "pool4"
  pooling_param {
    pool: AVE
    kernel_size: 3
    stride: 2
  }
}
layer {
  name: "ip1"
  type: "InnerProduct"
  bottom: "pool4"
  top: "ip1"
  param {
    lr_mult: 1
  }
  param {
    lr_mult: 2
  }
  inner_product_param {
    num_output: 64
    weight_filler {
      type: "gaussian"
      std: 0.1
    }
    bias_filler {
      type: "constant"
    }
  }
}
layer {
  name: "ip2"
  type: "InnerProduct"
  bottom: "ip1"
  top: "ip2"
  param {
    lr_mult: 1
  }
  param {
    lr_mult: 2
  }
  inner_product_param {
    num_output: 100
    weight_filler {
      type: "gaussian"
      std: 0.1
    }
    bias_filler {
      type: "constant"
    }
  }
}
layer {
  name: "accuracy"
  type: "Accuracy"
  bottom: "ip2"
  bottom: "label"
  top: "accuracy"
  include {
    phase: TEST
  }
}
layer {
  name: "loss"
  type: "SoftmaxWithLoss"
  bottom: "ip2"
  bottom: "label"
  top: "loss"
}
I1122 08:15:04.155530 13637 layer_factory.hpp:74] Creating layer cifar
I1122 08:15:04.155545 13637 net.cpp:84] Creating Layer cifar
I1122 08:15:04.155553 13637 net.cpp:338] cifar -> data
I1122 08:15:04.155565 13637 net.cpp:338] cifar -> label
I1122 08:15:04.155575 13637 net.cpp:113] Setting up cifar
I1122 08:15:04.155581 13637 image_data_layer.cpp:36] Opening file data/test.txt
I1122 08:15:04.159554 13637 image_data_layer.cpp:51] A total of 10000 images.
I1122 08:15:04.159729 13637 image_data_layer.cpp:80] output data size: 250,3,32,32
I1122 08:15:04.160722 13637 net.cpp:120] Top shape: 250 3 32 32 (768000)
I1122 08:15:04.160737 13637 net.cpp:120] Top shape: 250 (250)
I1122 08:15:04.160743 13637 layer_factory.hpp:74] Creating layer label_cifar_1_split
I1122 08:15:04.160759 13637 net.cpp:84] Creating Layer label_cifar_1_split
I1122 08:15:04.160766 13637 net.cpp:380] label_cifar_1_split <- label
I1122 08:15:04.160783 13637 net.cpp:338] label_cifar_1_split -> label_cifar_1_split_0
I1122 08:15:04.160800 13637 net.cpp:338] label_cifar_1_split -> label_cifar_1_split_1
I1122 08:15:04.160809 13637 net.cpp:113] Setting up label_cifar_1_split
I1122 08:15:04.160822 13637 net.cpp:120] Top shape: 250 (250)
I1122 08:15:04.160830 13637 net.cpp:120] Top shape: 250 (250)
I1122 08:15:04.160836 13637 layer_factory.hpp:74] Creating layer conv1
I1122 08:15:04.160846 13637 net.cpp:84] Creating Layer conv1
I1122 08:15:04.160852 13637 net.cpp:380] conv1 <- data
I1122 08:15:04.160861 13637 net.cpp:338] conv1 -> conv1
I1122 08:15:04.160871 13637 net.cpp:113] Setting up conv1
I1122 08:15:04.161175 13637 net.cpp:120] Top shape: 250 32 34 34 (9248000)
I1122 08:15:04.161196 13637 layer_factory.hpp:74] Creating layer pool1
I1122 08:15:04.161206 13637 net.cpp:84] Creating Layer pool1
I1122 08:15:04.161216 13637 net.cpp:380] pool1 <- conv1
I1122 08:15:04.161226 13637 net.cpp:338] pool1 -> pool1
I1122 08:15:04.161234 13637 net.cpp:113] Setting up pool1
I1122 08:15:04.161291 13637 net.cpp:120] Top shape: 250 32 17 17 (2312000)
I1122 08:15:04.161305 13637 layer_factory.hpp:74] Creating layer relu1
I1122 08:15:04.161314 13637 net.cpp:84] Creating Layer relu1
I1122 08:15:04.161320 13637 net.cpp:380] relu1 <- pool1
I1122 08:15:04.161329 13637 net.cpp:327] relu1 -> pool1 (in-place)
I1122 08:15:04.161336 13637 net.cpp:113] Setting up relu1
I1122 08:15:04.161387 13637 net.cpp:120] Top shape: 250 32 17 17 (2312000)
I1122 08:15:04.161396 13637 layer_factory.hpp:74] Creating layer conv2
I1122 08:15:04.161406 13637 net.cpp:84] Creating Layer conv2
I1122 08:15:04.161417 13637 net.cpp:380] conv2 <- pool1
I1122 08:15:04.161425 13637 net.cpp:338] conv2 -> conv2
I1122 08:15:04.161435 13637 net.cpp:113] Setting up conv2
I1122 08:15:04.161996 13637 net.cpp:120] Top shape: 250 32 19 19 (2888000)
I1122 08:15:04.162019 13637 layer_factory.hpp:74] Creating layer relu2
I1122 08:15:04.162029 13637 net.cpp:84] Creating Layer relu2
I1122 08:15:04.162035 13637 net.cpp:380] relu2 <- conv2
I1122 08:15:04.162044 13637 net.cpp:327] relu2 -> conv2 (in-place)
I1122 08:15:04.162052 13637 net.cpp:113] Setting up relu2
I1122 08:15:04.162192 13637 net.cpp:120] Top shape: 250 32 19 19 (2888000)
I1122 08:15:04.162205 13637 layer_factory.hpp:74] Creating layer pool2
I1122 08:15:04.162214 13637 net.cpp:84] Creating Layer pool2
I1122 08:15:04.162225 13637 net.cpp:380] pool2 <- conv2
I1122 08:15:04.162235 13637 net.cpp:338] pool2 -> pool2
I1122 08:15:04.162245 13637 net.cpp:113] Setting up pool2
I1122 08:15:04.162304 13637 net.cpp:120] Top shape: 250 32 8 8 (512000)
I1122 08:15:04.162313 13637 layer_factory.hpp:74] Creating layer conv3
I1122 08:15:04.162324 13637 net.cpp:84] Creating Layer conv3
I1122 08:15:04.162330 13637 net.cpp:380] conv3 <- pool2
I1122 08:15:04.162344 13637 net.cpp:338] conv3 -> conv3
I1122 08:15:04.162355 13637 net.cpp:113] Setting up conv3
I1122 08:15:04.164279 13637 net.cpp:120] Top shape: 250 32 6 6 (288000)
I1122 08:15:04.164299 13637 layer_factory.hpp:74] Creating layer relu3
I1122 08:15:04.164311 13637 net.cpp:84] Creating Layer relu3
I1122 08:15:04.164319 13637 net.cpp:380] relu3 <- conv3
I1122 08:15:04.164326 13637 net.cpp:327] relu3 -> conv3 (in-place)
I1122 08:15:04.164335 13637 net.cpp:113] Setting up relu3
I1122 08:15:04.164388 13637 net.cpp:120] Top shape: 250 32 6 6 (288000)
I1122 08:15:04.164402 13637 layer_factory.hpp:74] Creating layer pool3
I1122 08:15:04.164410 13637 net.cpp:84] Creating Layer pool3
I1122 08:15:04.164417 13637 net.cpp:380] pool3 <- conv3
I1122 08:15:04.164428 13637 net.cpp:338] pool3 -> pool3
I1122 08:15:04.164438 13637 net.cpp:113] Setting up pool3
I1122 08:15:04.164489 13637 net.cpp:120] Top shape: 250 32 3 3 (72000)
I1122 08:15:04.164497 13637 layer_factory.hpp:74] Creating layer conv4
I1122 08:15:04.164506 13637 net.cpp:84] Creating Layer conv4
I1122 08:15:04.164536 13637 net.cpp:380] conv4 <- pool3
I1122 08:15:04.164557 13637 net.cpp:338] conv4 -> conv4
I1122 08:15:04.164569 13637 net.cpp:113] Setting up conv4
I1122 08:15:04.165447 13637 net.cpp:120] Top shape: 250 64 5 5 (400000)
I1122 08:15:04.165464 13637 layer_factory.hpp:74] Creating layer relu4
I1122 08:15:04.165477 13637 net.cpp:84] Creating Layer relu4
I1122 08:15:04.165484 13637 net.cpp:380] relu4 <- conv4
I1122 08:15:04.165491 13637 net.cpp:327] relu4 -> conv4 (in-place)
I1122 08:15:04.165500 13637 net.cpp:113] Setting up relu4
I1122 08:15:04.165637 13637 net.cpp:120] Top shape: 250 64 5 5 (400000)
I1122 08:15:04.165649 13637 layer_factory.hpp:74] Creating layer pool4
I1122 08:15:04.165659 13637 net.cpp:84] Creating Layer pool4
I1122 08:15:04.165665 13637 net.cpp:380] pool4 <- conv4
I1122 08:15:04.165673 13637 net.cpp:338] pool4 -> pool4
I1122 08:15:04.165683 13637 net.cpp:113] Setting up pool4
I1122 08:15:04.165743 13637 net.cpp:120] Top shape: 250 64 2 2 (64000)
I1122 08:15:04.165752 13637 layer_factory.hpp:74] Creating layer ip1
I1122 08:15:04.165761 13637 net.cpp:84] Creating Layer ip1
I1122 08:15:04.165767 13637 net.cpp:380] ip1 <- pool4
I1122 08:15:04.165776 13637 net.cpp:338] ip1 -> ip1
I1122 08:15:04.165786 13637 net.cpp:113] Setting up ip1
I1122 08:15:04.166343 13637 net.cpp:120] Top shape: 250 64 (16000)
I1122 08:15:04.166357 13637 layer_factory.hpp:74] Creating layer ip2
I1122 08:15:04.166366 13637 net.cpp:84] Creating Layer ip2
I1122 08:15:04.166373 13637 net.cpp:380] ip2 <- ip1
I1122 08:15:04.166381 13637 net.cpp:338] ip2 -> ip2
I1122 08:15:04.166394 13637 net.cpp:113] Setting up ip2
I1122 08:15:04.166625 13637 net.cpp:120] Top shape: 250 100 (25000)
I1122 08:15:04.166636 13637 layer_factory.hpp:74] Creating layer ip2_ip2_0_split
I1122 08:15:04.166646 13637 net.cpp:84] Creating Layer ip2_ip2_0_split
I1122 08:15:04.166656 13637 net.cpp:380] ip2_ip2_0_split <- ip2
I1122 08:15:04.166664 13637 net.cpp:338] ip2_ip2_0_split -> ip2_ip2_0_split_0
I1122 08:15:04.166673 13637 net.cpp:338] ip2_ip2_0_split -> ip2_ip2_0_split_1
I1122 08:15:04.166682 13637 net.cpp:113] Setting up ip2_ip2_0_split
I1122 08:15:04.166690 13637 net.cpp:120] Top shape: 250 100 (25000)
I1122 08:15:04.166697 13637 net.cpp:120] Top shape: 250 100 (25000)
I1122 08:15:04.166703 13637 layer_factory.hpp:74] Creating layer accuracy
I1122 08:15:04.166715 13637 net.cpp:84] Creating Layer accuracy
I1122 08:15:04.166721 13637 net.cpp:380] accuracy <- ip2_ip2_0_split_0
I1122 08:15:04.166728 13637 net.cpp:380] accuracy <- label_cifar_1_split_0
I1122 08:15:04.166736 13637 net.cpp:338] accuracy -> accuracy
I1122 08:15:04.166750 13637 net.cpp:113] Setting up accuracy
…
